…
    Train subjects: ['NDARAC589YMB', 'NDARAE710YWG', 'NDARAH239PGG', 'NDARAL897CYV', 'NDARAN160GUF', 'NDARAP049KXJ', 'NDARAP457WB5', 'NDARAW216PM7']
    Test subjects : ['NDARAC853CR6', 'NDARAU939WUK']
    Train windows: 567 Test windows: 140
    X_train torch.Size([567, 24, 256]) | Train batches: 18 | Test batches: 5
    Label balance train: 0.51 | test: 0.50
    ==========================================================================================
    Layer (type:depth-idx)                   Output Shape              Param #
    ==========================================================================================
    ShallowFBCSPNet                          [1, 2]                    --
    ├─Ensure4d: 1-1                          [1, 24, 256, 1]           --
    ├─Rearrange: 1-2                         [1, 1, 256, 24]           --
    ├─CombinedConv: 1-3                      [1, 40, 232, 1]           39,440
    ├─BatchNorm2d: 1-4                       [1, 40, 232, 1]           80
    ├─Square: 1-5                            [1, 40, 232, 1]           --
    ├─AvgPool2d: 1-6                         [1, 40, 11, 1]            --
    ├─SafeLog: 1-7                           [1, 40, 11, 1]            --
    ├─Dropout: 1-8                           [1, 40, 11, 1]            --
    ├─Sequential: 1-9                        [1, 2]                    --
    │    └─Conv2d: 2-1                       [1, 2, 1, 1]              882
    │    └─SqueezeFinalOutput: 2-2           [1, 2]                    --
    │    │    └─Rearrange: 3-1               [1, 2, 1]                 --
    ==========================================================================================
    Total params: 40,402
    Trainable params: 40,402
    Non-trainable params: 0
    Total mult-adds (Units.MEGABYTES): 0.00
    ==========================================================================================
    Input size (MB): 0.02
    Forward/backward pass size (MB): 0.07
    Params size (MB): 0.00
…
